data.pth (torch, 5610 bytes, 6 tensors)

l1.weight f4 [8, 57]
-0.35684735 -0.15405081 0.034317512 0.46739718 -0.25702932 0.16664888 0.7181474 0.4899226
0.2528071 0.6545148 0.29811072 0.04724318 -0.30386606 0.5867309 -0.20139387 -0.46536595
-0.4222652 0.0029384643 -0.16714875 0.5677503 0.1558732 0.5496536 -0.19403417 -0.066992745
-0.33704528 -0.14314227 -0.47030717 0.38261637 -0.37663493 0.53243285 -0.3957091 0.44021195
-0.49222448 0.13914633 -0.028425373 0.0379487 0.38198194 0.05482607 -0.40857962 0.5435572
0.6627077 0.44774923 0.5571701 0.23690948 0.5387398 -0.099963464 -0.11189344 0.3559737
0.11286268 -0.44407594 -0.22327715 0.343121 0.6220435 -0.27865183 0.339478 0.42282805
0.42481413 -0.38926023 -0.26433086 0.0754497 0.58576643 0.1973316 0.47099695 -0.53427935
0.54391176 0.5334187 0.35712254 0.377174 0.1833147 -0.31395507 0.6417963 -0.20388396
-0.22213565 -0.40232208 0.16491677 0.59243476 -0.5343022 -0.40905043 -0.2725591 0.6093955
-0.1236478 0.5618366 0.50630426 -0.19165945 0.3311845 0.3968564 0.43861383 0.6224339
0.35250372 0.25873196 -0.32292166 -0.3280475 -0.095890045 0.4180178 0.5551936 -0.40265727
0.11574366 0.5104741 0.40065753 0.5081361 -0.33208507 0.35619557 -0.11166375 0.535708
0.4560404 0.61851865 -0.53446853 -0.14632837 0.34110427 0.4778214 -0.38829696 0.27308673
0.50960374 0.17042603 -0.18888362 -0.11648244 -0.16405654 0.58255005 0.15822713 0.63433576
-0.10312836 0.1243422 0.5277165 0.64973855 0.3070944 -0.16094348 -0.24617088 0.6357426
-0.19265212 -0.102057 -0.0442135 0.09530782 -0.13351828 -0.07935487 0.06592967 0.16835922
-0.108431734 -0.017506296 0.14777926 -0.13009667 -0.072236724 -0.2362667 0.039498456 0.7375622
-0.34920508 0.3031836 -0.23575601 -0.08176689 -0.04305226 -0.004747235 0.5876297 -0.019825555
-0.07429211 0.376671 0.42525765 -0.06587182 -0.04950861 -0.063104644 0.4473631 -0.07362104
-0.074005306 0.26541734 0.050217792 -0.29052052 0.030770171 0.4868426 0.61013377 -0.13785878
0.4273004 0.01946266 0.18790355 0.32811627 0.60714597 0.58839875 0.022073325 0.04598177
-0.14610778 -0.1137275 -0.075793676 -0.07877415 0.19756573 -0.022090785 -0.41354984 0.27496365
0.48921454 0.17555301 0.69309187 0.2667352 0.36943874 0.18998222 -0.13744546 -0.13553055
-0.085040495 -0.2774532 0.3727945 -0.2060361 -0.3080459 -0.16561413 0.30486163 -0.15733506
0.37839165 0.5895404 0.17571571 0.38967296 -0.2292961 0.23866238 0.34277654 -0.1242938
0.583243 0.2515162 0.17963684 0.13379735 0.06234831 -0.124183685 -0.15507953 0.44709858
0.060509145 0.5123891 0.1054884 0.51256305 0.9285043 0.33967182 0.197223 0.3930237
0.24362199 0.27693868 -0.060472738 0.49457192 0.44359663 0.36616176 -0.08585803 -0.19580881
0.3710148 0.33791175 0.10544148 -0.16458078 -0.3623422 -0.41346523 -0.29829815 0.38049263
-0.20258845 -0.19976039 -0.3296996 0.3027673 -0.14012212 -0.30925116 0.42985064 0.036284976
-0.054385625 0.14711633 0.6056029 0.36582884 0.5623562 0.559378 0.36425447 -0.2193128
00000000: b2b4 b6be 7fbf 1dbe 8590 0c3d af4e ef3e
00000010: 5999 83be 01a6 2a3e 82d8 373f 23d7 fa3e
00000020: ef6f 813e 488e 273f f8a1 983e 1182 413d
00000030: 5594 9bbe ff33 163f 323a 4ebe 7244 eebe
00000040: 2533 d8be 4093 403b 0b29 2bbe 1558 113f
00000050: 399d 1f3e 19b6 0c3f e5b0 46be 7e33 89bd
00000060: 3391 acbe e393 12be 1acc f0be 4be6 c33e
00000070: 4bd6 c0be 854d 083f 629a cabe 7663 e13e
00000080: d904 fcbe 607c 0e3e 54dc e8bc 1970 1b3d
00000090: 2393 c33e 4d91 603d 5931 d1be 9126 0b3f
000000a0: 36a7 293f 633f e53e b3a2 0e3f 6698 723e
000000b0: daea 093f a5b9 ccbd 6328 e5bd 2f42 b63e
000000c0: 8c24 e73d ec5d e3be c4a2 64be 8ead af3e
000000d0: 3e3e 1f3f 74ab 8ebe 0fd0 ad3e eb7c d83e
000000e0: 3d81 d93e 1e4d c7be 6056 87be 5f85 9a3d
000000f0: caf4 153f 4c11 4a3e 8326 f13e 88c6 08bf
00000100: cd3d 0b3f 218e 083f c4d8 b63e f31c c13e
00000110: d9b6 3b3e b8be a0be c34c 243f f5c6 50be
00000120: 8777 63be 29fd cdbe f1df 283e cea9 173f
00000130: 07c8 08bf 0f6f d1be de8c 8bbe 5801 1c3f
00000140: 0f3b fdbd 86d4 0f3f 289d 013f 6042 44be
00000150: 0491 a93e c330 cb3e fe91 e03e d457 1f3f
00000160: 5e7b b43e 8478 843e fd55 a5be d8f5 a7be
00000170: 0062 c4bd 6e06 d63e 2b21 0e3f 1829 cebe
00000180: 030b ed3d 6eae 023f fc22 cd3e 3515 023f
00000190: 0e07 aabe 445f b63e f7af e4bd 2924 093f
000001a0: 217e e93e 3d57 1e3f eed2 08bf 1bd7 15be
000001b0: 38a5 ae3e 02a5 f43e dcce c6be 06d2 8b3e
000001c0: 6475 023f 2984 2e3e b56a 41be 588e eebd
000001d0: 70fe 27be 0022 153f 4b06 223e d463 223f
000001e0: f634 d3bd 20a7 fe3d 6e18 073f 4455 263f
000001f0: 7a3b 9d3e 5ece 24be 3814 7cbe 07c0 223f
00000200: 9946 45be 4303 d1bd 3719 35bd bf30 c33d
00000210: 04b9 08be ce84 a2bd 2306 873d 5c66 2c3e
00000220: 7511 debd 5d69 8fbc 7253 173e 1038 05be
00000230: d9f0 93bd e6ef 71be 22c9 213d e0d0 3c3f
00000240: 02cb b2be e13a 9b3e 066a 71be 6675 a7bd
00000250: 9157 30bd b28e 9bbb e66e 163f 3469 a2bc
00000260: 7626 98bd 05db c03e 5fbb d93e cee7 86bd
00000270: 8ac9 4abd 023d 81bd c70c e53e a1c6 96bd
00000280: 1890 97bd c8e4 873e 2cb1 4d3d 1bbf 94be
00000290: ba11 fc3c 6f43 f93e ba31 1c3f da2a 0dbe
000002a0: 1ec7 da3e 2870 9f3c ca69 403e dbfe a73e
000002b0: eb6d 1b3f 4da1 163f 1ed3 b43c 6157 3c3d
000002c0: 479d 15be f7e9 e8bd b739 9bbd 5754 a1bd
000002d0: ac4e 4a3e bcf7 b4bc cebc d3be 09c8 8c3e
000002e0: 547a fa3e 2bc4 333e 786e 313f 8491 883e
000002f0: 1327 bd3e b38a 423e 81be 0cbe 85c8 0abe
00000300: b629 aebd 590e 8ebe ecde be3e 21fb 52be
00000310: 31b8 9dbe c096 29be d316 9c3e 711c 21be
00000320: 8dbc c13e 1fec 163f d2ee 333e 3783 c73e
00000330: 99cc 6abe e963 743e 6880 af3e bf8d febd
00000340: 6a4f 153f bbc6 803e b8f2 373e 2c02 093e
00000350: f160 7f3d 0454 febd 2bcd 1ebe 1bea e43e
00000360: 70d8 773d ef2b 033f 4d0a d83d 5537 033f
00000370: 75b2 6d3f 77e9 ad3e d3f4 493e 673a c93e
00000380: 0b78 793e e8ca 8d3e 43b2 77bd 8838 fd3e
00000390: 191f e33e 8e79 bb3e 56d6 afbd 1b82 48be
000003a0: a7f5 bd3e c502 ad3e b4f1 d73d dd87 28be
000003b0: eb84 b9be b7b1 d3be 89ba 98be eecf c23e
000003c0: 5973 4fbe fd8d 4cbe 63ce a8be 5104 9b3e
000003d0: 2c7c 0fbe 2b56 9ebe 6215 dc3e 8e9f 143d
000003e0: 76c3 5ebd aaa5 163e cb08 1b3f eb4d bb3e
000003f0: 93f6 0f3f 6633 0f3f 907f ba3e 8993 60be

l1.bias f4 [8]
0.44406164 0.5342937 0.10303017 0.5590186 0.897561 0.395255 0.6013815 0.48425514
00000000: 0c5c e33e 79c7 083f 7b01 d33d d81b 0f3f
00000010: 8fc6 653f dd5e ca3e 23f4 193f 4af0 f73e

l2.weight f4 [8, 8]
-1.0363563 0.30753762 -0.7579573 1.1944392 0.799457 -0.2944619 0.49155027 -0.4673862
0.5181046 0.65345824 0.23503326 -0.07585683 -0.7796707 0.14912331 1.291348 0.27616042
-0.48679125 -0.54806286 -0.24789757 0.19473259 -0.48656824 0.11581912 0.90759724 0.41989902
0.31446055 0.10621272 0.15569112 1.1757351 0.92450315 -0.13059515 -1.6536609 -0.84435153
0.46066886 -1.503662 -0.62976784 0.1491044 0.94541603 0.5500266 -0.3430926 0.8419255
0.7469622 1.1133195 0.641575 -0.2372694 1.2240251 -0.7543741 0.6626423 -0.74032104
-0.4122522 -0.60386854 -0.7420167 1.1705228 -0.087371156 0.7122303 0.30783755 0.6801403
1.0669138 0.6923267 0.4367413 1.085242 -0.5877424 1.0442964 -0.7418146 0.7243707
00000000: 53a7 84bf 9275 9d3e 7d09 42bf 62e3 983f
00000010: 37a9 4c3f b6c3 96be 7aac fb3e 3e4d efbe
00000020: 81a2 043f 0a49 273f 8fac 703e d35a 9bbd
00000030: 8098 47bf c8b3 183e e44a a53f e664 8d3e
00000040: b43c f9be d94d 0cbf dcd8 7dbe fb67 473e
00000050: 791f f9be 9332 ed3d 4b58 683f 01fd d63e
00000060: f900 a13e 0e86 d93d 7e6d 1f3e 7d7e 963f
00000070: 3dac 6c3f bcba 05be 29ab d3bf 6c27 58bf
00000080: cadc eb3e ff77 c0bf 7738 21bf d3ae 183e
00000090: c906 723f 8bce 0c3f d5a9 afbe 6e88 573f
000000a0: ea38 3f3f 4181 8e3f 423e 243f c0f6 72be
000000b0: dbac 9c3f a91e 41bf eda2 293f ae85 3dbf
000000c0: b812 d3be 2197 1abf cef4 3dbf b1d3 953f
000000d0: a6ef b2bd ba54 363f e29c 9d3e ad1d 2e3f
000000e0: a290 883f 533c 313f 8e9c df3e 36e9 8a3f
000000f0: 4976 16bf 81ab 853f 90e7 3dbf 5c70 393f

l2.bias f4 [8]
0.64706355 -0.2737546 -0.048643578 0.0011225982 0.53767353 0.7443745 0.28086856 0.2767232
00000000: f5a5 253f 9029 8cbe 7d3e 47bd 2524 933a
00000010: f9a4 093f 548f 3e3f 01ce 8f3e aaae 8d3e

l3.weight f4 [7, 8]
0.6732191 -1.4450047 -0.4664724 0.8838273 0.44562936 -0.25363457 0.06915176 -0.8914036
-0.19692254 0.2754419 0.84920496 -1.0453092 -1.0272979 -0.8015351 0.47056437 -0.2607306
0.28843555 -0.47454742 -1.0080897 -0.40522304 -1.6163796 -0.98878866 0.30896538 0.68225694
-1.1316485 -0.9638382 -0.6899596 -1.3904088 0.87521464 -0.07845029 0.15147054 0.335964
0.8661958 -0.34892797 -0.075687796 -0.14264342 -0.1880742 1.0213977 -1.6130686 -1.5717895
-0.81692785 0.7399354 -0.41344872 -1.1043957 -0.86372876 0.18547128 -1.2702578 0.44493756
-1.0031877 -0.6645385 -0.3439259 0.77067584 -1.1505665 0.40276504 -0.62045413 0.085460395
00000000: 1658 2c3f eaf5 b8bf 78d5 eebe 8242 623f
00000010: 8829 e43e 64dc 81be 709f 8d3d 0733 64bf
00000020: 10a6 49be b906 8d3e 7f65 593f b1cc 85bf
00000030: 7f7e 83bf 6831 4dbf d0ed f03e 7b7e 85be
00000040: d3ad 933e e1f7 f2be 1509 81bf 6579 cfbe
00000050: 87e5 cebf 4121 7dbf b630 9e3e 64a8 2e3f
00000060: dcd9 90bf 1abe 76bf 31a1 30bf eaf8 b1bf
00000070: 110e 603f 8caa a0bd 181b 1b3e 7903 ac3e
00000080: 02bf 5d3f b0a6 b2be 3402 9bbd 1e11 12be
00000090: 8696 40be 29bd 823f 0879 cebf 6630 c9bf
000000a0: 2f22 51bf 686c 3d3f 8daf d3be d75c 8dbf
000000b0: 541d 5dbf 2fec 3d3e cf97 a2bf dbce e33e
000000c0: 7468 80bf 321f 2abf 0e17 b0be 034b 453f
000000d0: c345 93bf 3837 ce3e 15d6 1ebf dc05 af3d

l3.bias f4 [7]
-0.25549713 -0.19419187 0.09124254 0.62064976 0.5562518 0.081904635 -0.2281913
00000000: 85d0 82be 3cda 46be 5edd ba3d e7e2 1e3f
00000010: 8566 0e3f 9ebd a73d fbaa 69be
